results/probe_results/all_probe_results.pt (torch, 30200 bytes, 8 tensors)

weight f4 [1, 1536]
-0.0054736 0.0136823235 0.009516905 0.012100671 -0.013126452 0.000709137 -0.0012992169 -0.003932036
-0.018793676 0.023419403 0.015473406 0.020267004 0.010863722 -0.019206269 0.0018370256 -0.016784893
0.020862142 -0.010754118 0.0017383796 0.0073648044 -0.0021851182 -0.02001838 -0.0077731917 0.0086428365
0.0025557298 -0.0220136 0.010835294 0.026690578 -0.00054473465 -0.030279716 -0.006326681 0.0197017
-0.02470549 -0.0066249687 -0.013029387 -0.023788996 0.017396921 -0.013715912 -0.023292745 0.0037479752
0.022825988 -0.0069141993 -0.02335857 -0.011622217 -0.0022697893 -0.0057268334 0.009752038 0.020055454
0.019886447 0.008700725 -0.00814268 -0.01545456 0.016378926 0.010100733 0.012792871 0.021693954
0.0023592731 -0.03320819 0.017255135 0.023832394 -0.005609562 0.013411364 -0.0067195776 -0.013034944
-0.0028837912 0.011849375 -0.02334506 -0.020612 0.023908244 0.0246252 0.023126082 0.021577261
0.00033486562 -0.013647845 -0.021289235 0.009199496 -0.0015021667 -0.009470077 0.0010477755 -0.0041249455
0.013697848 0.008494765 0.034135714 -0.0010304822 -0.00706113 0.0037155582 0.020989094 0.020735163
-0.013404492 0.01568677 -0.01444729 -0.0039748414 0.015667703 -0.019046286 -0.0035091864 -0.022592625
0.03957708 -0.019109067 0.027508559 0.008658471 0.002608859 -0.008472226 -0.023706589 0.00072011526
-0.007449889 -0.024291657 0.005512861 0.013036359 0.018938623 -0.018608456 -0.029587707 -0.0065146303
0.0032298751 -0.015671754 0.012390894 -0.008113557 -0.0056797806 0.0018483478 0.017907692 0.015863795
0.024625905 -0.005744155 -0.013963162 -0.04047426 0.009556901 -0.019637492 -0.019137545 0.03987499
0.0038076993 0.017403925 0.00037284908 -0.024577454 -0.0077957646 -0.003040691 -0.022247389 -0.019222891
-0.0072941887 -0.010139585 -0.02330915 0.012504446 0.01843083 0.012038646 -0.06630994 -0.020485464
0.0062939087 -0.0032822243 -0.016812691 -0.013006406 -0.01682108 -0.0041092294 0.020707276 0.025201945
0.0070868637 -0.019359896 0.005252134 0.00029216518 -0.002713762 -0.022406185 0.024736064 -0.024470825
-0.0029525242 -0.016352765 0.016853996 -0.0024253218 0.0017372412 -0.0006595608 -0.00074661046 -0.0017654785
0.011879741 -0.007028498 -0.010427457 -0.008411445 0.003208103 -0.015805434 -0.022006454 0.007077724
0.003934812 0.018822316 -0.015392792 0.011612541 0.0032431257 -0.003410132 0.01357178 0.0051545547
-0.01677007 0.00089017185 0.0007534174 0.020806983 -0.007336555 0.012687901 0.00801547 -0.0030076804
0.011868208 4.3664688e-05 -0.0023475955 0.005489899 -0.0064740884 0.0072750356 0.026281686 -0.0073226043
0.008639426 0.025503553 -0.023076257 0.0004104967 -0.0067824107 -0.024290148 0.012297067 0.017091595
0.02534116 0.025414262 0.013419869 0.021982396 0.023350183 0.008629085 0.010976638 0.013019247
0.013509461 -0.013477692 0.036716662 0.021004425 -0.007890288 -0.0133721335 0.013917364 0.009401395
0.024538627 -0.026052954 -0.011852402 0.0059340806 0.0047019944 0.010261184 -0.011534243 0.020015433
-0.018084597 -0.012856442 -0.0019689105 0.027309664 0.010830458 -0.018909285 -0.00092038576 0.01063041
0.047291495 0.0141819045 0.007486215 -0.045132164 -0.0047397544 0.006530432 0.017353458 -0.01709917
-0.023442084 0.002686306 0.0050894897 -0.00013313818 0.011193951 -0.011843941 0.017588971 -0.01620816
00000000: e25b b3bb d32b 603c cbec 1b3c e541 463c
00000010: 5510 57bc 61e5 393a 7c4a aaba 4fd8 80bb
00000020: 32f5 99bc 0cda bf3c 2b84 7d3c fd06 a63c
00000030: c1fd 313c 7756 9dbc 5ac8 f03a 7980 89bc
00000040: 15e7 aa3c 0a32 30bc 57da e33a 7554 f13b
00000050: 3334 0fbb 96fd a3bc 42b6 febb af9a 0d3c
00000060: 087e 273b de55 b4bc 8486 313c 33a6 da3c
00000070: 86cc 0eba 2b0d f8bc 0c50 cfbb 7665 a13c
00000080: 2b63 cabc 4416 d9bb 3679 55bc 24e1 c2bc
00000090: fd83 8e3c b4b8 60bc 6dd0 bebc 97a0 753b
000000a0: 91fd ba3c 8290 e2bb 795a bfbc 1c6b 3ebc
000000b0: bfc0 14bb 29a8 bbbb 03c7 1f3c 564b a43c
000000c0: e7e8 a23c 7c8d 0e3c e068 05bc 1f35 7dbc
000000d0: 192d 863c 8b7d 253c 3199 513c 85b7 b13c
000000e0: 099e 1a3b 5005 08bd a45a 8d3c 273c c33c
000000f0: 6bd0 b7bb 56bb 5b3c e72f dcbb 8590 55bc
00000100: fdfd 3cbb e223 423c 243e bfbc 7fda a8bc
00000110: 39db c33c caba c93c e972 bd3c ccc2 b03c
00000120: e790 af39 369b 5fbc c366 aebc 7cb9 163c
00000130: 5ae4 c4ba 6228 1bbc 8355 893a 8d2a 87bb
00000140: f06c 603c a02d 0b3c e4d1 0b3d 3f11 87ba
00000150: 0d61 e7bb b980 733b 52f1 ab3c cadc a93c
00000160: 849e 5bbc 8b81 803c 54b4 6cbc 633f 82bb
00000170: 8e59 803c f506 9cbc 61fa 65bb 2b14 b9bc
00000180: 941b 223d 9e8a 9cbc a159 e13c 42dc 0d3c
00000190: 64f9 2a3b 17cf 0abc 5234 c2bc 1ec6 3c3a
000001a0: 331e f4bb 4cff c6bc 3ba5 b43b 7496 553c
000001b0: 2c25 9b3c c370 98bc eb61 f2bc ae78 d5bb
000001c0: 50ac 533b 0d62 80bc 2d03 4b3c b9ee 04bc
000001d0: 741d babb 4344 f23a 27b3 923c caf4 813c
000001e0: 44bc c93c 7739 bcbb bfc5 64bc 56c8 25bd
000001f0: 8c94 1c3c cede a0bc 57c6 9cbc f553 233d
00000200: 988a 793b ad92 8e3c f57a c339 a856 c9bc
00000210: 9d73 ffbb 5446 47bb 2840 b6bc 5379 9dbc
00000220: 1704 efbb 8020 26bc d5f2 bebc 73df 4c3c
00000230: 41fc 963c be3d 453c 81cd 87bd 22d1 a7bc
00000240: 223d ce3b 961a 57bb c5ba 89bc d218 55bc
00000250: 5dcc 89bc b7a6 86bb 4ea2 a93c 4f74 ce3c
00000260: ec38 e83b a598 9ebc 181a ac3b bf2d 9939
00000270: 5fd9 31bb 2d8d b7bc 49a3 ca3c 0a77 c8bc
00000280: 237f 41bb 3cf6 85bc 6411 8a3c 26f2 1ebb
00000290: 24b4 e33a 60e6 2cba 2eb8 43ba a167 e7ba
000002a0: 3fa3 423c 514f e6bb edd7 2abc 28d0 09bc
000002b0: 093f 523b 667a 81bc e146 b4bc 41ec e73b
000002c0: 98ef 803b 4231 9a3c 0d32 7cbc 8742 3e3c
000002d0: 9f8a 543b 857c 5fbb 2c5c 5e3c 8ae7 a83b
000002e0: 6361 89bc 6c5a 693a fc80 453a 6873 aa3c
000002f0: 7c67 f0bb eae0 4f3c 5153 033c 811c 45bb
00000300: df72 423c 9a24 3738 1eda 19bb 9ce4 b33b
00000310: 9724 d4bb 6c63 ee3b b14c d73c 75f2 efbb
00000320: 618c 0d3c d4ec d03c 6b0a bdbc ef37 d739
00000330: fc3e debb 22fc c6bc a379 493c ac03 8c3c
00000340: 4498 cf3c 9231 d03c 03df 5b3c 6d14 b43c
00000350: e248 bf3c 0161 0d3c 5bd7 333c ae4e 553c
00000360: c956 5d3c 8ad1 5cbc 3664 163d 7911 ac3c
00000370: 4446 01bc cb16 5bbc a805 643c 4f08 1a3c
00000380: 3b05 c93c 016d d5bc 9430 42bc ad72 c23b
00000390: 3013 9a3b 861e 283c 1ffa 3cbc 68f7 a33c
000003a0: 2626 94bc d3a3 52bc d608 01bb 84b8 df3c
000003b0: 3c72 313c a5e7 9abc 0b46 71ba 2c2b 2e3c
000003c0: bab4 413d 385b 683c ec4e f53b 81dc 38bd
000003d0: f14f 9bbb 3cfd d53b d728 8e3c 8f13 8cbc
000003e0: 9d09 c0bc bc0c 303b bcc5 a63b 029b 0bb9
000003f0: d566 373c 170d 42bc bf16 903c fac6 84bc

direction f4 [1536]
-0.0054736 0.0136823235 0.009516905 0.012100671 -0.013126452 0.000709137 -0.0012992169 -0.003932036
-0.018793676 0.023419403 0.015473406 0.020267004 0.010863722 -0.019206269 0.0018370256 -0.016784893
0.020862142 -0.010754118 0.0017383796 0.0073648044 -0.0021851182 -0.02001838 -0.0077731917 0.0086428365
0.0025557298 -0.0220136 0.010835294 0.026690578 -0.00054473465 -0.030279716 -0.006326681 0.0197017
-0.02470549 -0.0066249687 -0.013029387 -0.023788996 0.017396921 -0.013715912 -0.023292745 0.0037479752
0.022825988 -0.0069141993 -0.02335857 -0.011622217 -0.0022697893 -0.0057268334 0.009752038 0.020055454
0.019886447 0.008700725 -0.00814268 -0.01545456 0.016378926 0.010100733 0.012792871 0.021693954
0.0023592731 -0.03320819 0.017255135 0.023832394 -0.005609562 0.013411364 -0.0067195776 -0.013034944
-0.0028837912 0.011849375 -0.02334506 -0.020612 0.023908244 0.0246252 0.023126082 0.021577261
0.00033486562 -0.013647845 -0.021289235 0.009199496 -0.0015021667 -0.009470077 0.0010477755 -0.0041249455
0.013697848 0.008494765 0.034135714 -0.0010304822 -0.00706113 0.0037155582 0.020989094 0.020735163
-0.013404492 0.01568677 -0.01444729 -0.0039748414 0.015667703 -0.019046286 -0.0035091864 -0.022592625
0.03957708 -0.019109067 0.027508559 0.008658471 0.002608859 -0.008472226 -0.023706589 0.00072011526
-0.007449889 -0.024291657 0.005512861 0.013036359 0.018938623 -0.018608456 -0.029587707 -0.0065146303
0.0032298751 -0.015671754 0.012390894 -0.008113557 -0.0056797806 0.0018483478 0.017907692 0.015863795
0.024625905 -0.005744155 -0.013963162 -0.04047426 0.009556901 -0.019637492 -0.019137545 0.03987499
0.0038076993 0.017403925 0.00037284908 -0.024577454 -0.0077957646 -0.003040691 -0.022247389 -0.019222891
-0.0072941887 -0.010139585 -0.02330915 0.012504446 0.01843083 0.012038646 -0.06630994 -0.020485464
0.0062939087 -0.0032822243 -0.016812691 -0.013006406 -0.01682108 -0.0041092294 0.020707276 0.025201945
0.0070868637 -0.019359896 0.005252134 0.00029216518 -0.002713762 -0.022406185 0.024736064 -0.024470825
-0.0029525242 -0.016352765 0.016853996 -0.0024253218 0.0017372412 -0.0006595608 -0.00074661046 -0.0017654785
0.011879741 -0.007028498 -0.010427457 -0.008411445 0.003208103 -0.015805434 -0.022006454 0.007077724
0.003934812 0.018822316 -0.015392792 0.011612541 0.0032431257 -0.003410132 0.01357178 0.0051545547
-0.01677007 0.00089017185 0.0007534174 0.020806983 -0.007336555 0.012687901 0.00801547 -0.0030076804
0.011868208 4.3664688e-05 -0.0023475955 0.005489899 -0.0064740884 0.0072750356 0.026281686 -0.0073226043
0.008639426 0.025503553 -0.023076257 0.0004104967 -0.0067824107 -0.024290148 0.012297067 0.017091595
0.02534116 0.025414262 0.013419869 0.021982396 0.023350183 0.008629085 0.010976638 0.013019247
0.013509461 -0.013477692 0.036716662 0.021004425 -0.007890288 -0.0133721335 0.013917364 0.009401395
0.024538627 -0.026052954 -0.011852402 0.0059340806 0.0047019944 0.010261184 -0.011534243 0.020015433
-0.018084597 -0.012856442 -0.0019689105 0.027309664 0.010830458 -0.018909285 -0.00092038576 0.01063041
0.047291495 0.0141819045 0.007486215 -0.045132164 -0.0047397544 0.006530432 0.017353458 -0.01709917
-0.023442084 0.002686306 0.0050894897 -0.00013313818 0.011193951 -0.011843941 0.017588971 -0.01620816
00000000: e25b b3bb d32b 603c cbec 1b3c e541 463c
00000010: 5510 57bc 61e5 393a 7c4a aaba 4fd8 80bb
00000020: 32f5 99bc 0cda bf3c 2b84 7d3c fd06 a63c
00000030: c1fd 313c 7756 9dbc 5ac8 f03a 7980 89bc
00000040: 15e7 aa3c 0a32 30bc 57da e33a 7554 f13b
00000050: 3334 0fbb 96fd a3bc 42b6 febb af9a 0d3c
00000060: 087e 273b de55 b4bc 8486 313c 33a6 da3c
00000070: 86cc 0eba 2b0d f8bc 0c50 cfbb 7665 a13c
00000080: 2b63 cabc 4416 d9bb 3679 55bc 24e1 c2bc
00000090: fd83 8e3c b4b8 60bc 6dd0 bebc 97a0 753b
000000a0: 91fd ba3c 8290 e2bb 795a bfbc 1c6b 3ebc
000000b0: bfc0 14bb 29a8 bbbb 03c7 1f3c 564b a43c
000000c0: e7e8 a23c 7c8d 0e3c e068 05bc 1f35 7dbc
000000d0: 192d 863c 8b7d 253c 3199 513c 85b7 b13c
000000e0: 099e 1a3b 5005 08bd a45a 8d3c 273c c33c
000000f0: 6bd0 b7bb 56bb 5b3c e72f dcbb 8590 55bc
00000100: fdfd 3cbb e223 423c 243e bfbc 7fda a8bc
00000110: 39db c33c caba c93c e972 bd3c ccc2 b03c
00000120: e790 af39 369b 5fbc c366 aebc 7cb9 163c
00000130: 5ae4 c4ba 6228 1bbc 8355 893a 8d2a 87bb
00000140: f06c 603c a02d 0b3c e4d1 0b3d 3f11 87ba
00000150: 0d61 e7bb b980 733b 52f1 ab3c cadc a93c
00000160: 849e 5bbc 8b81 803c 54b4 6cbc 633f 82bb
00000170: 8e59 803c f506 9cbc 61fa 65bb 2b14 b9bc
00000180: 941b 223d 9e8a 9cbc a159 e13c 42dc 0d3c
00000190: 64f9 2a3b 17cf 0abc 5234 c2bc 1ec6 3c3a
000001a0: 331e f4bb 4cff c6bc 3ba5 b43b 7496 553c
000001b0: 2c25 9b3c c370 98bc eb61 f2bc ae78 d5bb
000001c0: 50ac 533b 0d62 80bc 2d03 4b3c b9ee 04bc
000001d0: 741d babb 4344 f23a 27b3 923c caf4 813c
000001e0: 44bc c93c 7739 bcbb bfc5 64bc 56c8 25bd
000001f0: 8c94 1c3c cede a0bc 57c6 9cbc f553 233d
00000200: 988a 793b ad92 8e3c f57a c339 a856 c9bc
00000210: 9d73 ffbb 5446 47bb 2840 b6bc 5379 9dbc
00000220: 1704 efbb 8020 26bc d5f2 bebc 73df 4c3c
00000230: 41fc 963c be3d 453c 81cd 87bd 22d1 a7bc
00000240: 223d ce3b 961a 57bb c5ba 89bc d218 55bc
00000250: 5dcc 89bc b7a6 86bb 4ea2 a93c 4f74 ce3c
00000260: ec38 e83b a598 9ebc 181a ac3b bf2d 9939
00000270: 5fd9 31bb 2d8d b7bc 49a3 ca3c 0a77 c8bc
00000280: 237f 41bb 3cf6 85bc 6411 8a3c 26f2 1ebb
00000290: 24b4 e33a 60e6 2cba 2eb8 43ba a167 e7ba
000002a0: 3fa3 423c 514f e6bb edd7 2abc 28d0 09bc
000002b0: 093f 523b 667a 81bc e146 b4bc 41ec e73b
000002c0: 98ef 803b 4231 9a3c 0d32 7cbc 8742 3e3c
000002d0: 9f8a 543b 857c 5fbb 2c5c 5e3c 8ae7 a83b
000002e0: 6361 89bc 6c5a 693a fc80 453a 6873 aa3c
000002f0: 7c67 f0bb eae0 4f3c 5153 033c 811c 45bb
00000300: df72 423c 9a24 3738 1eda 19bb 9ce4 b33b
00000310: 9724 d4bb 6c63 ee3b b14c d73c 75f2 efbb
00000320: 618c 0d3c d4ec d03c 6b0a bdbc ef37 d739
00000330: fc3e debb 22fc c6bc a379 493c ac03 8c3c
00000340: 4498 cf3c 9231 d03c 03df 5b3c 6d14 b43c
00000350: e248 bf3c 0161 0d3c 5bd7 333c ae4e 553c
00000360: c956 5d3c 8ad1 5cbc 3664 163d 7911 ac3c
00000370: 4446 01bc cb16 5bbc a805 643c 4f08 1a3c
00000380: 3b05 c93c 016d d5bc 9430 42bc ad72 c23b
00000390: 3013 9a3b 861e 283c 1ffa 3cbc 68f7 a33c
000003a0: 2626 94bc d3a3 52bc d608 01bb 84b8 df3c
000003b0: 3c72 313c a5e7 9abc 0b46 71ba 2c2b 2e3c
000003c0: bab4 413d 385b 683c ec4e f53b 81dc 38bd
000003d0: f14f 9bbb 3cfd d53b d728 8e3c 8f13 8cbc
000003e0: 9d09 c0bc bc0c 303b bcc5 a63b 029b 0bb9
000003f0: d566 373c 170d 42bc bf16 903c fac6 84bc

weight f4 [1, 1536]
0.010520098 0.013197602 0.006984931 -0.017759297 -0.012656022 0.026460145 -0.017683532 0.028694408
-0.025902301 0.010016878 -0.008522937 -0.024261247 0.013280639 0.019485433 -0.021316769 -0.005133114
-0.01181873 0.0055343057 0.013663408 0.014039269 -0.021532217 -0.0026620852 -0.024365688 0.008882676
-0.017002199 0.0068096877 0.006831532 -0.011707367 0.00569953 0.0062016207 -0.009723574 0.0106023
-0.005045958 0.002708639 -0.015742578 -0.007813111 -0.019716475 -0.022397522 -0.0035481618 0.003997833
-0.016774418 0.056569047 0.021158753 -0.00839371 -0.016082117 0.004901258 -0.020174501 -0.00023923515
0.024822742 -0.0012675773 0.019278187 -0.015323936 -0.024618331 -0.008421108 0.004041454 0.0029658265
0.020587964 -0.0041814903 -0.0107736755 0.0070826155 0.010550221 -0.018950103 0.0031090316 -0.02104147
-0.0022011711 0.007300922 -0.0058877547 -0.00074221037 -0.015894797 -0.022691907 -0.02156596 0.0071181846
0.015263342 -0.01080204 0.0052663772 -0.007195282 0.010368825 -0.0062751113 -0.016668545 -0.015883848
-0.008935653 -0.00037529093 0.018849092 0.018395038 -0.005395783 -0.014030033 0.009286538 -0.012547374
-0.0024372798 0.013445432 -0.014253746 0.0132199945 -0.008235212 0.005400925 -0.0137547245 0.015882565
0.0033382277 0.007890165 -0.022344105 -0.017030645 -0.003257715 0.014424347 -0.013808542 -0.014801918
0.006475468 -0.011959335 0.027696973 0.007783005 -0.0060057137 -0.009842994 -0.029806241 0.040952753
-0.025364084 0.01889661 -0.016443688 0.02313965 -0.00463064 0.006934817 -0.018106794 -0.025019232
-0.0030059929 -0.006496539 0.0074051237 0.0072949384 0.025769662 0.004660122 0.013284508 0.029150922
-0.0061402866 0.008121537 -0.01703253 0.0009558786 0.014795617 0.0065497207 -0.015261889 -0.01364286
-0.0036670545 0.005547041 -0.017235426 0.033414017 0.027684525 0.017789755 0.0040949928 0.006607249
-0.01852666 0.017518083 0.020817807 -0.021262571 0.0053709433 -0.013966278 0.023578728 0.0011977883
-0.013943537 -0.026510583 -0.020305302 0.01194238 -0.007978847 -0.023117289 -0.014097876 0.0069556315
-0.014484165 0.013423204 0.024132755 -0.01583056 0.0026556049 -0.006062309 -0.024070749 -0.008884162
0.018016893 -0.017298283 -0.0144446 -0.012306544 -0.02291292 0.0038503942 -0.000656176 0.019305004
-0.022262072 -0.0044789743 -0.02118906 -0.017881127 0.025228588 -0.008900657 -0.011120164 -0.019093351
0.0030698678 0.023809643 0.015927644 0.018364206 -0.020771902 -0.025687208 -0.013100165 -0.00032952445
0.010612614 -0.0211045 0.011371986 0.024301039 -0.0050439294 -0.019422712 -0.015519004 0.012103027
0.019307131 0.012071019 0.006243992 -0.0183166 -0.008011079 -0.013792641 0.0027464973 -0.010107996
0.0058596223 0.007915911 0.019050565 0.008516572 0.021446105 0.012836462 0.0031785257 -0.014813608
0.010016807 0.01617394 0.017378988 0.0010201446 -0.0062627834 0.020125784 0.0030322494 -0.0051745884
-0.020426968 -0.0070169903 0.012096012 -0.010975221 -0.021374414 0.020014634 0.002432473 0.013632012
0.0055706864 -0.028600514 -0.017726906 -0.024433019 -0.0029034086 0.0065518836 0.0126555115 0.0070528905
0.03237149 0.022138232 -0.0025878851 -0.029182058 0.00741129 -0.0051828925 -0.02346196 -0.008795557
-0.029375724 -0.017179878 -0.019874645 -0.00593523 0.019080255 0.015871188 -0.014365476 -0.021584416
00000000: 7d5c 2c3c c13a 583c d9e1 e43b f27b 91bc
00000010: 345b 4fbc f2c2 d83c 0edd 90bc 8910 eb3c
00000020: 1031 d4bc d51d 243c caa3 0bbc 86bf c6bc
00000030: 0a97 593c ea9f 9f3c 81a0 aebc ae33 a8bb
00000040: 59a3 41bc 1f59 b53b 7ddc 5f3c f604 663c
00000050: 5564 b0bc 6176 2ebb 8d9a c7bc a588 113c
00000060: 3248 8bbc cd23 df3b 0bdb df3b 42d0 3fbc
00000070: 1fc3 ba3b f736 cb3b a04f 1fbc 45b5 2d3c
00000080: 9058 a5bb 6c83 313b 94f6 80bc 9002 00bc
00000090: 7284 a1bc 027b b7bc 4788 68bb 4100 833b
000000a0: 816a 89bc f2b4 673d 1f55 ad3c c585 09bc
000000b0: a5be 83bc bb9a a03b ff44 a5bc 32db 7ab9
000000c0: 1059 cb3c d624 a6ba 4aed 9d3c 3f11 7bbc
000000d0: 62ac c9bc b0f8 09bc 2c6e 843b 505e 423b
000000e0: 17a8 a83c e204 89bb 1284 30bc 4915 e83b
000000f0: d6da 2c3c 3f3d 9bbc e5c0 4b3b 295f acbc
00000100: 8641 10bb 933c ef3b 11ee c0bb e590 42ba
00000110: ce35 82bc 61e4 b9bc 19ab b0bc a93f e93b
00000120: 1913 7a3c 0afb 30bc 9391 ac3b 66c6 ebbb
00000130: 01e2 293c 739f cdbb 798c 88bc d81e 82bc
00000140: d866 12bc b2c2 c4b9 6969 9a3c 31b1 963c
00000150: 1ccf b0bb 39de 65bc 9026 183c 8093 4dbc
00000160: c5ba 1fbb 3b4a 5c3c 8b88 69bc ad98 583c
00000170: fcec 06bc 3efa b03b 7f5b 61bc 271c 823c
00000180: 2bc6 5a3b c045 013c fc0a b7bc da83 8bbc
00000190: 637f 55bb 1954 6c3c 393d 62bc be83 72bc
000001a0: 2a30 d43b 16f1 43bc c3e4 e23c 9408 ff3b
000001b0: 94cb c4bb 8244 21bc 382c f4bc 13be 273d
000001c0: 57c8 cfbc 10cd 9a3c eab4 86bc 5d8f bd3c
000001d0: a0bc 97bb 763d e33b b354 94bc 22f5 ccbc
000001e0: 3100 45bb ebe0 d4bb aea6 f23b 610a ef3b
000001f0: e61a d33c f0b3 983b 44a7 593c eacd ee3c
00000200: 7534 c9bb 3210 053c ce87 8bbc ed93 7a3a
00000210: 5169 723c 0a9f d63b 010d 7abc 4d86 5fbc
00000220: f752 70bb f4c3 b53b 4f31 8dbc 23dd 083d
00000230: a8ca e23c d2bb 913c 4a2f 863b 9f81 d83b
00000240: 39c5 97bc 1582 8f3c 1b8a aa3c d82e aebc
00000250: bdfe af3b d1d2 64bc 2d28 c13c 1bff 9c3a
00000260: 6f73 64bc b92c d9bc 4e57 a6bc f9a9 433c
00000270: b6b9 02bc 7860 bdbc c7fa 66bc 11ec e33b
00000280: fe4e 6dbc 00ed 5b3c 0eb2 c53c 17af 81bc
00000290: a809 2e3b 55a6 c6bb 0530 c5bc e08e 11bc
000002a0: 2a98 933c 21b5 8dbc 0ba9 6cbc 63a1 49bc
000002b0: e0b3 bbbc e556 7c3b 3a03 2cba 8725 9e3c
000002c0: f35e b6bc 5cc4 92bb ae94 adbc 717b 92bc
000002d0: 2fac ce3c 10d4 11bc 5931 36bc a969 9cbc
000002e0: d62f 493b 710c c33c b17a 823c 8870 963c
000002f0: d629 aabc fb6d d2bc 13a2 56bc 06c4 acb9
00000300: 88e0 2d3c 58e3 acbc 9151 3a3c f912 c73c
00000310: 8c47 a5bb 611c 9fbc 6c43 7ebc c64b 463c
00000320: fd29 9e3c 86c5 453c 679a cc3b b20c 96bc
00000330: e740 03bc 88fa 61bc 94fe 333b 029c 25bc
00000340: 1302 c03b bdb1 013c ee0f 9c3c 1889 0b3c
00000350: beaf af3c 0650 523c d04e 503b c6b4 72bc
00000360: 891d 243c 367f 843c 615e 8e3c 5fb6 853a
00000370: 0938 cdbb d4de a43c b4b8 463b 988f a9bb
00000380: 7556 a7bc c8ee e5bb 5a2e 463c 6ad1 33bc
00000390: 6519 afbc bbf5 a33c 206a 1f3b cd58 5f3c
000003a0: 4e8a b63b a04b eabc 0438 91bc c127 c8bc
000003b0: 1d47 3ebb 2fb1 d63b 1059 4f3c ef1b e73b
000003c0: f897 043d 3d5b b53c 8299 29bb 360f efbc
000003d0: 68da f23b 41d5 a9bb 4c33 c0bc 3d1b 10bc
000003e0: 5ca5 f0bc d1bc 8cbc 27d0 a2bc 517c c2bb
000003f0: 324e 9c3c 4b04 823c 2c5d 6bbc cdd1 b0bc

direction f4 [1536]
0.010520098 0.013197602 0.006984931 -0.017759297 -0.012656022 0.026460145 -0.017683532 0.028694408
-0.025902301 0.010016878 -0.008522937 -0.024261247 0.013280639 0.019485433 -0.021316769 -0.005133114
-0.01181873 0.0055343057 0.013663408 0.014039269 -0.021532217 -0.0026620852 -0.024365688 0.008882676
-0.017002199 0.0068096877 0.006831532 -0.011707367 0.00569953 0.0062016207 -0.009723574 0.0106023
-0.005045958 0.002708639 -0.015742578 -0.007813111 -0.019716475 -0.022397522 -0.0035481618 0.003997833
-0.016774418 0.056569047 0.021158753 -0.00839371 -0.016082117 0.004901258 -0.020174501 -0.00023923515
0.024822742 -0.0012675773 0.019278187 -0.015323936 -0.024618331 -0.008421108 0.004041454 0.0029658265
0.020587964 -0.0041814903 -0.0107736755 0.0070826155 0.010550221 -0.018950103 0.0031090316 -0.02104147
-0.0022011711 0.007300922 -0.0058877547 -0.00074221037 -0.015894797 -0.022691907 -0.02156596 0.0071181846
0.015263342 -0.01080204 0.0052663772 -0.007195282 0.010368825 -0.0062751113 -0.016668545 -0.015883848
-0.008935653 -0.00037529093 0.018849092 0.018395038 -0.005395783 -0.014030033 0.009286538 -0.012547374
-0.0024372798 0.013445432 -0.014253746 0.0132199945 -0.008235212 0.005400925 -0.0137547245 0.015882565
0.0033382277 0.007890165 -0.022344105 -0.017030645 -0.003257715 0.014424347 -0.013808542 -0.014801918
0.006475468 -0.011959335 0.027696973 0.007783005 -0.0060057137 -0.009842994 -0.029806241 0.040952753
-0.025364084 0.01889661 -0.016443688 0.02313965 -0.00463064 0.006934817 -0.018106794 -0.025019232
-0.0030059929 -0.006496539 0.0074051237 0.0072949384 0.025769662 0.004660122 0.013284508 0.029150922
-0.0061402866 0.008121537 -0.01703253 0.0009558786 0.014795617 0.0065497207 -0.015261889 -0.01364286
-0.0036670545 0.005547041 -0.017235426 0.033414017 0.027684525 0.017789755 0.0040949928 0.006607249
-0.01852666 0.017518083 0.020817807 -0.021262571 0.0053709433 -0.013966278 0.023578728 0.0011977883
-0.013943537 -0.026510583 -0.020305302 0.01194238 -0.007978847 -0.023117289 -0.014097876 0.0069556315
-0.014484165 0.013423204 0.024132755 -0.01583056 0.0026556049 -0.006062309 -0.024070749 -0.008884162
0.018016893 -0.017298283 -0.0144446 -0.012306544 -0.02291292 0.0038503942 -0.000656176 0.019305004
-0.022262072 -0.0044789743 -0.02118906 -0.017881127 0.025228588 -0.008900657 -0.011120164 -0.019093351
0.0030698678 0.023809643 0.015927644 0.018364206 -0.020771902 -0.025687208 -0.013100165 -0.00032952445
0.010612614 -0.0211045 0.011371986 0.024301039 -0.0050439294 -0.019422712 -0.015519004 0.012103027
0.019307131 0.012071019 0.006243992 -0.0183166 -0.008011079 -0.013792641 0.0027464973 -0.010107996
0.0058596223 0.007915911 0.019050565 0.008516572 0.021446105 0.012836462 0.0031785257 -0.014813608
0.010016807 0.01617394 0.017378988 0.0010201446 -0.0062627834 0.020125784 0.0030322494 -0.0051745884
-0.020426968 -0.0070169903 0.012096012 -0.010975221 -0.021374414 0.020014634 0.002432473 0.013632012
0.0055706864 -0.028600514 -0.017726906 -0.024433019 -0.0029034086 0.0065518836 0.0126555115 0.0070528905
0.03237149 0.022138232 -0.0025878851 -0.029182058 0.00741129 -0.0051828925 -0.02346196 -0.008795557
-0.029375724 -0.017179878 -0.019874645 -0.00593523 0.019080255 0.015871188 -0.014365476 -0.021584416
00000000: 7d5c 2c3c c13a 583c d9e1 e43b f27b 91bc
00000010: 345b 4fbc f2c2 d83c 0edd 90bc 8910 eb3c
00000020: 1031 d4bc d51d 243c caa3 0bbc 86bf c6bc
00000030: 0a97 593c ea9f 9f3c 81a0 aebc ae33 a8bb
00000040: 59a3 41bc 1f59 b53b 7ddc 5f3c f604 663c
00000050: 5564 b0bc 6176 2ebb 8d9a c7bc a588 113c
00000060: 3248 8bbc cd23 df3b 0bdb df3b 42d0 3fbc
00000070: 1fc3 ba3b f736 cb3b a04f 1fbc 45b5 2d3c
00000080: 9058 a5bb 6c83 313b 94f6 80bc 9002 00bc
00000090: 7284 a1bc 027b b7bc 4788 68bb 4100 833b
000000a0: 816a 89bc f2b4 673d 1f55 ad3c c585 09bc
000000b0: a5be 83bc bb9a a03b ff44 a5bc 32db 7ab9
000000c0: 1059 cb3c d624 a6ba 4aed 9d3c 3f11 7bbc
000000d0: 62ac c9bc b0f8 09bc 2c6e 843b 505e 423b
000000e0: 17a8 a83c e204 89bb 1284 30bc 4915 e83b
000000f0: d6da 2c3c 3f3d 9bbc e5c0 4b3b 295f acbc
00000100: 8641 10bb 933c ef3b 11ee c0bb e590 42ba
00000110: ce35 82bc 61e4 b9bc 19ab b0bc a93f e93b
00000120: 1913 7a3c 0afb 30bc 9391 ac3b 66c6 ebbb
00000130: 01e2 293c 739f cdbb 798c 88bc d81e 82bc
00000140: d866 12bc b2c2 c4b9 6969 9a3c 31b1 963c
00000150: 1ccf b0bb 39de 65bc 9026 183c 8093 4dbc
00000160: c5ba 1fbb 3b4a 5c3c 8b88 69bc ad98 583c
00000170: fcec 06bc 3efa b03b 7f5b 61bc 271c 823c
00000180: 2bc6 5a3b c045 013c fc0a b7bc da83 8bbc
00000190: 637f 55bb 1954 6c3c 393d 62bc be83 72bc
000001a0: 2a30 d43b 16f1 43bc c3e4 e23c 9408 ff3b
000001b0: 94cb c4bb 8244 21bc 382c f4bc 13be 273d
000001c0: 57c8 cfbc 10cd 9a3c eab4 86bc 5d8f bd3c
000001d0: a0bc 97bb 763d e33b b354 94bc 22f5 ccbc
000001e0: 3100 45bb ebe0 d4bb aea6 f23b 610a ef3b
000001f0: e61a d33c f0b3 983b 44a7 593c eacd ee3c
00000200: 7534 c9bb 3210 053c ce87 8bbc ed93 7a3a
00000210: 5169 723c 0a9f d63b 010d 7abc 4d86 5fbc
00000220: f752 70bb f4c3 b53b 4f31 8dbc 23dd 083d
00000230: a8ca e23c d2bb 913c 4a2f 863b 9f81 d83b
00000240: 39c5 97bc 1582 8f3c 1b8a aa3c d82e aebc
00000250: bdfe af3b d1d2 64bc 2d28 c13c 1bff 9c3a
00000260: 6f73 64bc b92c d9bc 4e57 a6bc f9a9 433c
00000270: b6b9 02bc 7860 bdbc c7fa 66bc 11ec e33b
00000280: fe4e 6dbc 00ed 5b3c 0eb2 c53c 17af 81bc
00000290: a809 2e3b 55a6 c6bb 0530 c5bc e08e 11bc
000002a0: 2a98 933c 21b5 8dbc 0ba9 6cbc 63a1 49bc
000002b0: e0b3 bbbc e556 7c3b 3a03 2cba 8725 9e3c
000002c0: f35e b6bc 5cc4 92bb ae94 adbc 717b 92bc
000002d0: 2fac ce3c 10d4 11bc 5931 36bc a969 9cbc
000002e0: d62f 493b 710c c33c b17a 823c 8870 963c
000002f0: d629 aabc fb6d d2bc 13a2 56bc 06c4 acb9
00000300: 88e0 2d3c 58e3 acbc 9151 3a3c f912 c73c
00000310: 8c47 a5bb 611c 9fbc 6c43 7ebc c64b 463c
00000320: fd29 9e3c 86c5 453c 679a cc3b b20c 96bc
00000330: e740 03bc 88fa 61bc 94fe 333b 029c 25bc
00000340: 1302 c03b bdb1 013c ee0f 9c3c 1889 0b3c
00000350: beaf af3c 0650 523c d04e 503b c6b4 72bc
00000360: 891d 243c 367f 843c 615e 8e3c 5fb6 853a
00000370: 0938 cdbb d4de a43c b4b8 463b 988f a9bb
00000380: 7556 a7bc c8ee e5bb 5a2e 463c 6ad1 33bc
00000390: 6519 afbc bbf5 a33c 206a 1f3b cd58 5f3c
000003a0: 4e8a b63b a04b eabc 0438 91bc c127 c8bc
000003b0: 1d47 3ebb 2fb1 d63b 1059 4f3c ef1b e73b
000003c0: f897 043d 3d5b b53c 8299 29bb 360f efbc
000003d0: 68da f23b 41d5 a9bb 4c33 c0bc 3d1b 10bc
000003e0: 5ca5 f0bc d1bc 8cbc 27d0 a2bc 517c c2bb
000003f0: 324e 9c3c 4b04 823c 2c5d 6bbc cdd1 b0bc

weight f4 [1, 1536]
0.002982446 0.01728259 -0.014389448 -0.00921956 -0.00071208057 -0.01989317 -0.011523064 -0.016380461
-0.0005356008 0.011498631 -0.026890095 0.0070122946 -0.01466329 -0.02776842 0.015115362 -0.008742076
0.021070505 -0.019794343 0.029369306 -0.027091982 -0.0057670283 -0.02450587 -0.03479323 0.0046238857
-0.032387972 0.0027680206 0.01593181 0.009673249 0.02243696 0.0016872066 0.0046147835 -0.004329791
0.020003805 -0.018907199 0.021545056 0.023262696 -0.026796918 0.007889764 0.016258633 0.005096607
0.020281067 -0.012649381 0.017342832 0.019022012 -0.023008721 -0.015827954 0.020323735 -0.0011196352
0.013611528 -0.015225852 0.015614643 0.019616157 -0.01095276 0.017808652 0.010228545 -0.0040175943
-0.0013490362 0.005068604 0.014671075 0.014232909 0.013468093 0.023200555 0.023330553 -0.0129774595
0.018337073 -0.011829282 0.023913426 -0.0052817627 0.018522149 -0.008355642 0.005779769 -0.021272777
0.0070526544 -0.0077111325 0.017710287 0.007832722 -0.018527927 -0.013541291 0.022518272 -0.020604108
0.020807793 0.025539983 -0.005773139 0.019504108 0.035529792 0.013741727 0.013577441 -0.0029104305
0.0055496157 0.0031880164 0.018818654 0.007957866 -0.003908131 -0.00410806 0.00869625 -0.018481562
-0.01633391 0.008948937 -0.013481251 0.0151718985 0.005177927 0.022680486 -0.021397669 0.018237935
-0.010412913 0.01935947 -0.020502307 -0.008616889 0.010313121 -0.013805462 0.0046253465 0.011641789
-0.0032047983 -0.019531533 -0.0065586288 -0.014507793 0.005331747 -0.027705662 0.017209327 -0.019466035
-0.018353172 -0.00093371555 -0.008189791 -0.0029647201 0.018719297 0.016022893 -0.023201404 -0.019092452
-0.0057871733 0.0018892015 0.015748955 -0.024763172 0.010341948 -0.008514643 0.008442928 0.025040418
0.021363795 0.027129067 -0.011337901 0.028211126 0.040338326 -0.009828565 0.014106343 0.0108529255
-0.006451365 0.015374307 0.024637265 0.015684467 0.022435743 0.017750602 0.018929973 -9.171598e-05
0.012543945 0.012108219 0.014271421 0.03271489 0.02195633 0.02138775 -0.00983887 -0.014345
-0.005679102 0.009193015 0.02032666 -0.004782989 0.023400342 -0.023194954 0.009175484 -0.011974229
-0.015986335 0.0060177376 -0.012630466 -0.009214778 -0.025658505 0.017341373 0.024901858 -0.02091702
0.008334694 0.008552568 -0.02058654 0.011088618 -0.02532903 0.017488642 -0.025251921 0.020976989
-0.017709645 0.004003601 0.019193076 -0.010636603 0.02248003 0.011589338 0.017812727 0.021249032
-0.0052926242 -0.009446442 -0.038658615 -0.009777371 -0.020712528 0.01982185 0.024767704 0.02207269
-0.019078285 -0.0026728103 -0.013318029 0.007438403 0.021535428 0.027030155 -0.0045406427 0.0037745987
-0.028678179 -0.017010788 -0.015833419 0.042725623 0.018644325 -0.0028762608 -0.0086638015 0.02488735
-0.016503898 -0.023191456 -0.012316209 0.013890901 -0.0052305013 0.006085198 0.024380878 0.0066032493
-0.0017474517 -0.021018168 -0.003811206 8.467887e-05 0.040010672 -0.008999169 0.01595276 0.0012838822
0.0022806383 0.018035173 -0.010190747 -0.01636643 -0.031780038 -0.023773879 0.01514798 -0.0038617952
-0.016655529 -0.017822769 0.008095618 -0.001183539 -9.640676e-05 -0.033920817 -0.012101078 -0.02751069
0.006120783 -0.0028204252 -0.020102495 0.009421892 -0.008440582 0.007091441 0.022775993 -0.018687658
00000000: 2475 433b 3894 8d3c b8c1 6bbc a30d 17bc
00000010: ebaa 3aba 00f7 a2bc 3ccb 3cbc 5130 86bc
00000020: 9067 0cba c164 3c3c 9e48 dcbc 64c7 e53b
00000030: 4c3e 70bc 997a e3bc 6ca6 773c ed3a 0fbc
00000040: 0d9c ac3c bf27 a2bc e697 f03c 01f0 ddbc
00000050: 57f9 bcbb 89c0 c8bc 5983 0ebd f783 973b
00000060: 40a9 04bd ae67 353b 6d83 823c 8c7c 1e3c
00000070: b7cd b73c 4225 dd3a 9c37 973b ebe0 8dbb
00000080: 05df a33c 45e3 9abc 427f b03c 6991 be3c
00000090: 3685 dbbc 1244 013c d330 853c 7001 a73b
000000a0: 7b24 a63c 593f 4fbc 8e12 8e3c 0dd4 9b3c
000000b0: c97c bcbc a0a9 81bc f67d a63c b9c0 92ba
000000c0: e302 5f3c da75 79bc 8fd4 7f3c 10b2 a03c
000000d0: 3573 33bc 73e3 913c a195 273c 06a6 83bb
000000e0: 25d2 b0ba 8816 a63b f35e 703c 2631 693c
000000f0: 47a9 5c3c 170f be3c b71f bf3c 699f 54bc
00000100: a137 963c 9bcf 41bc 17e6 c33c a312 adbb
00000110: c3bb 973c 1ae6 08bc 3764 bd3b 3f44 aebc
00000120: f419 e73b abad fcbb 2a15 913c d154 003c
00000130: e1c7 97bc 4adc 5dbc 3d78 b83c f2c9 a8bc
00000140: 1b75 aa3c 3a39 d13c 9a2c bdbb 14c7 9f3c
00000150: b087 113d fb24 613c ea73 5e3c ecbc 3ebb
00000160: 8dd9 b53b 0aee 503b 9429 9a3c b661 023c
00000170: c70f 80bb e89c 86bb b77a 0e3c a566 97bc
00000180: b1ce 85bc 909e 123c 77e0 5cbc 8e93 783c
00000190: 9aab a93b 6dcc b93c 2a4a afbc b967 953c
000001a0: ec9a 2abc c097 9e3c 74f4 a7bc da2d 0dbc
000001b0: 5df8 283c 4e30 62bc 3890 973b 34bd 3e3c
000001c0: 9807 52bb 9800 a0bc c4e9 d6bb 18b2 6dbc
000001d0: efb5 ae3b fcf6 e2bc 93fa 8c3c 3c77 9fbc
000001e0: 6459 96bc 97c4 74ba 792e 06bc c04b 42bb
000001f0: 3659 993c 7142 833c df10 bebc c667 9cbc
00000200: 54a2 bdbb 159f f73a f403 813c 23dc cabc
00000210: 4671 293c 0081 0bbc 3554 0a3c 9021 cd3c
00000220: 2003 af3c c73d de3c 9bc2 39bc 051b e73c
00000230: cd39 253d fd07 21bc 4a1e 673c 78d0 313c
00000240: f965 d3bb 84e4 7b3c 17d4 c93c b67c 803c
00000250: 2acb b73c b669 913c 0813 9b3c a457 c0b8
00000260: 1e85 4d3c 8d61 463c aed2 693c 0c00 063d
00000270: c3dd b33c 5d35 af3c 3633 21bc 4a07 6bbc
00000280: c317 babb 4d9e 163c 1884 a63c 9fba 9cbb
00000290: 13b2 bf3c 5803 bebc c554 163c 8e2f 44bc
000002a0: c6f5 82bc 7130 c53b 04f0 4ebc 95f9 16bc
000002b0: c931 d2bc 7f0f 8e3c fbfe cb3c 2c5a abbc
000002c0: 3e8e 083c 1220 0c3c 1ba5 a8bc 09ad 353c
000002d0: d37e cfbc 5744 8f3c 1edd cebc efd7 ab3c
000002e0: d113 91bc a430 833b cc3a 9d3c 2645 2ebc
000002f0: 0a28 b83c 35e1 3d3c ffeb 913c 7312 ae3c
00000300: c06d adbb 40c5 1abc 7f58 1ebd 4431 20bc
00000310: 52ad a9bc 6f61 a23c a4e5 ca3c c9d1 b43c
00000320: 104a 9cbc 512a 2fbb dd33 5abc d9bd f33b
00000330: 116b b03c 586e dd3c acc9 94bb 425f 773b
00000340: 80ee eabc 355a 8bbc 16b5 81bc 1001 2f3d
00000350: fcbb 983c a67f 3cbb 9ef2 0dbc 8ee0 cb3c
00000360: 2f33 87bc 02fc bdbc edc9 49bc a996 633c
00000370: a064 abbb 5766 c73b 68ba c73c 1260 d83b
00000380: c00a e5ba 4b2e acbc 6dc5 79bb 9f95 b138
00000390: 3be2 233d 4071 13bc 5daf 823c f047 a83a
000003a0: c376 153b 80be 933c 17f7 26bc e412 86bc
000003b0: c92b 02bd 70c1 c2bc 3c2f 783c 2c16 7dbb
000003c0: 2d71 88bc 0e01 92bc 7ca3 043c fb20 9bba
000003d0: fc2d cab8 8ef0 0abd 9a43 46bc 195e e1bc
000003e0: d990 c83b e2d6 38bb fdad a4bc 485e 1a3c
000003f0: 5e4a 0abc 525f e83b b894 ba3c dc16 99bc

direction f4 [1536]
0.002982446 0.01728259 -0.014389448 -0.00921956 -0.00071208057 -0.01989317 -0.011523064 -0.016380461
-0.0005356008 0.011498631 -0.026890095 0.0070122946 -0.01466329 -0.02776842 0.015115362 -0.008742076
0.021070505 -0.019794343 0.029369306 -0.027091982 -0.0057670283 -0.02450587 -0.03479323 0.0046238857
-0.032387972 0.0027680206 0.01593181 0.009673249 0.02243696 0.0016872066 0.0046147835 -0.004329791
0.020003805 -0.018907199 0.021545056 0.023262696 -0.026796918 0.007889764 0.016258633 0.005096607
0.020281067 -0.012649381 0.017342832 0.019022012 -0.023008721 -0.015827954 0.020323735 -0.0011196352
0.013611528 -0.015225852 0.015614643 0.019616157 -0.01095276 0.017808652 0.010228545 -0.0040175943
-0.0013490362 0.005068604 0.014671075 0.014232909 0.013468093 0.023200555 0.023330553 -0.0129774595
0.018337073 -0.011829282 0.023913426 -0.0052817627 0.018522149 -0.008355642 0.005779769 -0.021272777
0.0070526544 -0.0077111325 0.017710287 0.007832722 -0.018527927 -0.013541291 0.022518272 -0.020604108
0.020807793 0.025539983 -0.005773139 0.019504108 0.035529792 0.013741727 0.013577441 -0.0029104305
0.0055496157 0.0031880164 0.018818654 0.007957866 -0.003908131 -0.00410806 0.00869625 -0.018481562
-0.01633391 0.008948937 -0.013481251 0.0151718985 0.005177927 0.022680486 -0.021397669 0.018237935
-0.010412913 0.01935947 -0.020502307 -0.008616889 0.010313121 -0.013805462 0.0046253465 0.011641789
-0.0032047983 -0.019531533 -0.0065586288 -0.014507793 0.005331747 -0.027705662 0.017209327 -0.019466035
-0.018353172 -0.00093371555 -0.008189791 -0.0029647201 0.018719297 0.016022893 -0.023201404 -0.019092452
-0.0057871733 0.0018892015 0.015748955 -0.024763172 0.010341948 -0.008514643 0.008442928 0.025040418
0.021363795 0.027129067 -0.011337901 0.028211126 0.040338326 -0.009828565 0.014106343 0.0108529255
-0.006451365 0.015374307 0.024637265 0.015684467 0.022435743 0.017750602 0.018929973 -9.171598e-05
0.012543945 0.012108219 0.014271421 0.03271489 0.02195633 0.02138775 -0.00983887 -0.014345
-0.005679102 0.009193015 0.02032666 -0.004782989 0.023400342 -0.023194954 0.009175484 -0.011974229
-0.015986335 0.0060177376 -0.012630466 -0.009214778 -0.025658505 0.017341373 0.024901858 -0.02091702
0.008334694 0.008552568 -0.02058654 0.011088618 -0.02532903 0.017488642 -0.025251921 0.020976989
-0.017709645 0.004003601 0.019193076 -0.010636603 0.02248003 0.011589338 0.017812727 0.021249032
-0.0052926242 -0.009446442 -0.038658615 -0.009777371 -0.020712528 0.01982185 0.024767704 0.02207269
-0.019078285 -0.0026728103 -0.013318029 0.007438403 0.021535428 0.027030155 -0.0045406427 0.0037745987
-0.028678179 -0.017010788 -0.015833419 0.042725623 0.018644325 -0.0028762608 -0.0086638015 0.02488735
-0.016503898 -0.023191456 -0.012316209 0.013890901 -0.0052305013 0.006085198 0.024380878 0.0066032493
-0.0017474517 -0.021018168 -0.003811206 8.467887e-05 0.040010672 -0.008999169 0.01595276 0.0012838822
0.0022806383 0.018035173 -0.010190747 -0.01636643 -0.031780038 -0.023773879 0.01514798 -0.0038617952
-0.016655529 -0.017822769 0.008095618 -0.001183539 -9.640676e-05 -0.033920817 -0.012101078 -0.02751069
0.006120783 -0.0028204252 -0.020102495 0.009421892 -0.008440582 0.007091441 0.022775993 -0.018687658
00000000: 2475 433b 3894 8d3c b8c1 6bbc a30d 17bc
00000010: ebaa 3aba 00f7 a2bc 3ccb 3cbc 5130 86bc
00000020: 9067 0cba c164 3c3c 9e48 dcbc 64c7 e53b
00000030: 4c3e 70bc 997a e3bc 6ca6 773c ed3a 0fbc
00000040: 0d9c ac3c bf27 a2bc e697 f03c 01f0 ddbc
00000050: 57f9 bcbb 89c0 c8bc 5983 0ebd f783 973b
00000060: 40a9 04bd ae67 353b 6d83 823c 8c7c 1e3c
00000070: b7cd b73c 4225 dd3a 9c37 973b ebe0 8dbb
00000080: 05df a33c 45e3 9abc 427f b03c 6991 be3c
00000090: 3685 dbbc 1244 013c d330 853c 7001 a73b
000000a0: 7b24 a63c 593f 4fbc 8e12 8e3c 0dd4 9b3c
000000b0: c97c bcbc a0a9 81bc f67d a63c b9c0 92ba
000000c0: e302 5f3c da75 79bc 8fd4 7f3c 10b2 a03c
000000d0: 3573 33bc 73e3 913c a195 273c 06a6 83bb
000000e0: 25d2 b0ba 8816 a63b f35e 703c 2631 693c
000000f0: 47a9 5c3c 170f be3c b71f bf3c 699f 54bc
00000100: a137 963c 9bcf 41bc 17e6 c33c a312 adbb
00000110: c3bb 973c 1ae6 08bc 3764 bd3b 3f44 aebc
00000120: f419 e73b abad fcbb 2a15 913c d154 003c
00000130: e1c7 97bc 4adc 5dbc 3d78 b83c f2c9 a8bc
00000140: 1b75 aa3c 3a39 d13c 9a2c bdbb 14c7 9f3c
00000150: b087 113d fb24 613c ea73 5e3c ecbc 3ebb
00000160: 8dd9 b53b 0aee 503b 9429 9a3c b661 023c
00000170: c70f 80bb e89c 86bb b77a 0e3c a566 97bc
00000180: b1ce 85bc 909e 123c 77e0 5cbc 8e93 783c
00000190: 9aab a93b 6dcc b93c 2a4a afbc b967 953c
000001a0: ec9a 2abc c097 9e3c 74f4 a7bc da2d 0dbc
000001b0: 5df8 283c 4e30 62bc 3890 973b 34bd 3e3c
000001c0: 9807 52bb 9800 a0bc c4e9 d6bb 18b2 6dbc
000001d0: efb5 ae3b fcf6 e2bc 93fa 8c3c 3c77 9fbc
000001e0: 6459 96bc 97c4 74ba 792e 06bc c04b 42bb
000001f0: 3659 993c 7142 833c df10 bebc c667 9cbc
00000200: 54a2 bdbb 159f f73a f403 813c 23dc cabc
00000210: 4671 293c 0081 0bbc 3554 0a3c 9021 cd3c
00000220: 2003 af3c c73d de3c 9bc2 39bc 051b e73c
00000230: cd39 253d fd07 21bc 4a1e 673c 78d0 313c
00000240: f965 d3bb 84e4 7b3c 17d4 c93c b67c 803c
00000250: 2acb b73c b669 913c 0813 9b3c a457 c0b8
00000260: 1e85 4d3c 8d61 463c aed2 693c 0c00 063d
00000270: c3dd b33c 5d35 af3c 3633 21bc 4a07 6bbc
00000280: c317 babb 4d9e 163c 1884 a63c 9fba 9cbb
00000290: 13b2 bf3c 5803 bebc c554 163c 8e2f 44bc
000002a0: c6f5 82bc 7130 c53b 04f0 4ebc 95f9 16bc
000002b0: c931 d2bc 7f0f 8e3c fbfe cb3c 2c5a abbc
000002c0: 3e8e 083c 1220 0c3c 1ba5 a8bc 09ad 353c
000002d0: d37e cfbc 5744 8f3c 1edd cebc efd7 ab3c
000002e0: d113 91bc a430 833b cc3a 9d3c 2645 2ebc
000002f0: 0a28 b83c 35e1 3d3c ffeb 913c 7312 ae3c
00000300: c06d adbb 40c5 1abc 7f58 1ebd 4431 20bc
00000310: 52ad a9bc 6f61 a23c a4e5 ca3c c9d1 b43c
00000320: 104a 9cbc 512a 2fbb dd33 5abc d9bd f33b
00000330: 116b b03c 586e dd3c acc9 94bb 425f 773b
00000340: 80ee eabc 355a 8bbc 16b5 81bc 1001 2f3d
00000350: fcbb 983c a67f 3cbb 9ef2 0dbc 8ee0 cb3c
00000360: 2f33 87bc 02fc bdbc edc9 49bc a996 633c
00000370: a064 abbb 5766 c73b 68ba c73c 1260 d83b
00000380: c00a e5ba 4b2e acbc 6dc5 79bb 9f95 b138
00000390: 3be2 233d 4071 13bc 5daf 823c f047 a83a
000003a0: c376 153b 80be 933c 17f7 26bc e412 86bc
000003b0: c92b 02bd 70c1 c2bc 3c2f 783c 2c16 7dbb
000003c0: 2d71 88bc 0e01 92bc 7ca3 043c fb20 9bba
000003d0: fc2d cab8 8ef0 0abd 9a43 46bc 195e e1bc
000003e0: d990 c83b e2d6 38bb fdad a4bc 485e 1a3c
000003f0: 5e4a 0abc 525f e83b b894 ba3c dc16 99bc

weight f4 [1, 1536]
-0.005486461 -0.019288737 -0.008833058 -0.011865812 0.014891556 0.02274512 -0.0028723008 -0.024568375
0.008460834 -0.0058469246 0.022636529 -0.0053893733 -0.01957683 0.019400684 -0.005642462 0.017901242
0.025968542 0.007542062 0.056604702 -0.021018336 -0.009123183 -0.00570532 -0.02190187 0.032771952
0.0007701379 0.022736758 0.021890925 -0.023411136 -0.020129735 0.023057146 -0.014047282 0.020553553
-0.013762342 0.0008412556 0.023271538 0.0078028464 0.020220088 0.0015058999 -0.009535232 0.006808459
0.014286016 -0.015545479 0.010064641 -0.019455746 -0.0020018676 -0.0026432646 -0.004544785 -0.0043690433
0.019220203 0.0022878847 -0.018609157 -0.006321981 -0.01023209 0.022589454 0.007253685 -0.005809262
-0.017389435 0.0009403731 0.011668954 -0.022385601 -0.012255265 0.0073165316 -0.009754678 0.0027693897
-0.013744574 -0.010119779 0.020221662 -0.025086895 -0.010128321 -0.016666017 0.021690015 -0.013042159
-0.0054629385 0.018902048 -0.016157212 0.0058872555 -0.0008911144 -0.017382137 -0.0047459616 0.023029577
0.025706928 0.037909217 -0.007169706 -0.0028693883 -0.01398372 -0.0050291326 -0.0034880177 0.02568684
0.015894514 0.0049415007 -0.009634642 0.013944948 0.0072164387 -0.014041435 0.017545702 -0.0012785641
-0.0052132634 -0.04179857 -0.00500614 -0.001769132 -0.013477168 0.027370712 0.021813065 0.007969495
0.00327609 0.017806178 0.021430286 -0.021441666 0.008653382 0.018411523 -0.0014881903 -0.012587582
0.0056304233 0.020669626 -0.014766545 -0.007688105 -0.009613672 0.018117394 -0.011540173 -0.0073048603
-0.009084217 -0.060793247 -0.012786956 -0.021394124 0.027674101 0.023012733 -0.013034373 -0.011846886
-0.00975254 -0.020186584 0.008370916 -0.009137238 -0.014035633 0.011426334 -0.007990462 0.00272089
0.021613583 0.022932492 0.0029988803 0.0026915076 0.03269189 -0.014895014 0.0050842604 -0.016273191
0.02054476 -0.020680176 -0.004395536 0.0039141234 -0.009862503 -0.006729942 0.0076864627 0.03164242
0.019735789 -0.027753217 0.0049235765 -0.004628752 0.00863178 -0.0036545573 -0.005676123 0.01618795
0.019494409 0.0050614825 0.019244028 -0.021210315 -0.00017405752 0.013365701 -0.025279118 -0.014436508
-0.021183683 0.0063729337 -0.0014222187 0.00039361004 0.020192273 -0.018774306 -0.0041768127 0.01119701
0.022645596 -0.011489262 -0.002901202 -0.009514955 0.02320591 0.013265613 -0.0066882498 -0.0060250377
-0.0058483845 -0.01399273 0.02574702 0.018368222 0.0157728 -0.005012446 -0.0031954346 0.011662007
-0.011703531 0.023520093 0.00800268 0.025618758 0.027101863 0.009806824 -0.0026540146 0.0053396653
-0.004870921 -0.013665552 0.0115353 0.020775694 -0.0040921797 0.013796233 -0.0069080726 -0.008701347
0.011704808 -0.014160679 0.021207353 0.0213103 0.01746289 0.018429322 0.016749803 -0.025374213
-0.014107493 0.022774588 -0.00020142707 0.0010131449 0.013076021 -0.01763092 -0.01454894 -0.01293109
0.023420112 -0.012946403 0.0014791026 -0.020797972 -0.02062297 -0.0097010145 -0.021363689 -0.013497819
-0.011383727 0.00090410886 0.007860098 -0.024500346 -0.00029584346 0.017253129 0.019367706 -0.014794242
0.0035137848 -0.014753143 -0.026077293 0.017176883 -0.012043751 0.015007837 0.014491409 0.0038791187
0.0053570354 -0.011813823 0.0039286255 -0.02158461 0.0020713897 0.016700678 0.051613435 0.01750075
00000000: c5c7 b3bb 6a03 9ebc 88b8 10bc d368 42bc
00000010: b7fb 733c f953 ba3c 363d 3cbb 9e43 c9bc
00000020: 4f9f 0a3c 8f97 bfbb 3e70 b93c 5799 b0bb
00000030: 975f a0bc 2fee 9e3c 67e4 b8bb a0a5 923c
00000040: fbbb d43c 6723 f73b 55da 673d a52e acbc
00000050: 6779 15bc b1f3 babb 8d6b b3bc e23b 063d
00000060: 14e3 493a 7042 ba3c 9954 b33c b6c8 bfbc
00000070: 1de7 a4bc 57e2 bc3c 9226 66bc ed5f a83c
00000080: 727b 61bc b587 5c3a f4a3 be3c 05af ff3b
00000090: 99a4 a53c 9e61 c53a a939 1cbc 7e19 df3b
000000a0: e50f 6a3c 77b2 7ebc 2ae6 243c a861 9fbc
000000b0: c431 03bb 9f3a 2dbb 6bec 94bb 312a 8fbb
000000c0: b073 9d3c 56f0 153b 3b72 98bc 9f28 cfbb
000000d0: 7fa4 27bc 850d b93c 52b0 ed3b 9f5b bebb
000000e0: 4a74 8ebc 5f83 763a 242f 3f3c 0262 b7bc
000000f0: 4fca 48bc 84bf ef3b 16d2 1fbc a67e 353b
00000100: ec30 61bc 6ecd 25bc e6a7 a53c 0883 cdbc
00000110: 42f1 25bc 2c87 88bc 42af b13c c8ae 55bc
00000120: 7302 b3bb 78d8 9a3c 215c 84bc e1e9 c03b
00000130: ad99 69ba fc64 8ebc 0384 9bbb 86a8 bc3c
00000140: 5697 d23c b246 1b3d daef eabb 590c 3cbb
00000150: f91b 65bc 6ccb a4bb 3a97 64bb 356d d23c
00000160: 3635 823c 50ec a13b 9eda 1dbc 5a79 643c
00000170: e077 ec3b 0c0e 66bc 01bc 8f3c 7e95 a7ba
00000180: 06d4 aabb fa34 2bbd 8c0a a4bb 38e2 e7ba
00000190: 57cf 5cbc 8b38 e03c 50b1 b23c 7c92 023c
000001a0: abb3 563b 43de 913c 918e af3c 6fa6 afbc
000001b0: eac6 0d3c c3d3 963c 610f c3ba 253c 4ebc
000001c0: 6a7f b83b 5953 a93c 61ef 71bc 80ec fbbb
000001d0: aa82 1dbc ee6a 943c fe12 3dbc 9c5d efbb
000001e0: f8d5 14bc 5702 79bd 6180 51bc bb42 afbc
000001f0: ccb4 e23c 3385 bc3c 1f8e 55bc 7119 42bc
00000200: 1ec9 1fbc 565e a5bc 2b26 093c 5bb4 15bc
00000210: b6f5 65bc 8535 3b3c 6dea 02bc f650 323b
00000220: f80e b13c ecdc bb3c dd88 443b 0164 303b
00000230: eee7 053d 380a 74bc de99 a63b 5b4f 85bc
00000240: 7c4d a83c 7969 a9bc 6e08 90bb 0c42 803b
00000250: 5696 21bc d886 dcbb b9de fb3b 7b9b 013d
00000260: f3ac a13c b75a e3bc f455 a13b c9ac 97bb
00000270: 4f6c 0d3c 4c81 6fbb c5fe b9bb 979c 843c
00000280: bdb2 9f3c cbda a53b a7a5 9d3c 41c1 adbc
00000290: 3683 36b9 d0fb 5a3c 2716 cfbc 1a87 6cbc
000002a0: 6789 adbc 0bd4 d03b be69 baba 725d ce39
000002b0: 446a a53c 93cc 99bc a5dd 88bb aa73 373c
000002c0: 4283 b93c 753d 3cbc 1822 3ebb 9de4 1bbc
000002d0: 521a be3c 0358 593c 1b29 dbbb ae6d c5bb
000002e0: cea3 bfbb c341 65bc 6aeb d23c f478 963c
000002f0: f635 813c 723f a4bb 7f6a 51bb 0112 3f3c
00000300: 2bc0 3fbc 36ad c03c ac1d 033c 6ede d13c
00000310: ba04 de3c cdac 203c faee 2dbb 5cf8 ae3b
00000320: 3f9c 9fbb 7be5 5fbc 8efe 3c3c ca31 aa3c
00000330: b117 86bb 9809 623c 1d5d e2bb 1890 0ebc
00000340: 86c5 3f3c 3102 68bc 0bbb ad3c f092 ae3c
00000350: 560e 8f3c 17f9 963c e236 893c 95dd cfbc
00000360: 1d23 67bc c691 ba3c 2b36 53b9 80cb 843a
00000370: cf3c 563c b86e 90bc ad5e 6ebc ecdc 53bc
00000380: 89db bf3c 261d 54bc 73de c13a 8260 aabc
00000390: 81f1 a8bc 01f1 1ebc e702 afbc f525 5dbc
000003a0: d082 3abc b801 6d3a a4c7 003c f3b4 c8bc
000003b0: 701b 9bb9 6f56 8d3c 06a9 9e3c 8c63 72bc
000003c0: 8747 663b 2bb7 71bc 0ca0 d5bc 89b6 8c3c
000003d0: 2753 45bc 6ee3 753c 606d 6d3c d038 7e3b
000003e0: 128a af3b c48e 41bc b3bb 803b 35d2 b0bc
000003f0: 27c0 073b dccf 883c 9c68 533d bc5d 8f3c
